09-03 17:06:24 - Using analytical normalization from Fourier series solution
09-03 17:06:25 - UNet(
  (ConvsDown): ModuleList(
    (0): _ConvBlock(
      (encode): Sequential(
        (0): Conv2d(1, 30, kernel_size=(3, 3), stride=(1, 1), padding=(1, 1))
        (1): ReLU()
        (2): Conv2d(30, 20, kernel_size=(3, 3), stride=(1, 1), padding=(1, 1))
        (3): ReLU()
      )
    )
    (1): _ConvBlock(
      (encode): Sequential(
        (0): MaxPool2d(kernel_size=2, stride=2, padding=0, dilation=1, ceil_mode=False)
        (1): Conv2d(20, 20, kernel_size=(3, 3), stride=(1, 1), padding=(1, 1))
        (2): ReLU()
        (3): Conv2d(20, 20, kernel_size=(3, 3), stride=(1, 1), padding=(1, 1))
        (4): ReLU()
      )
    )
    (2): _ConvBlock(
      (encode): Sequential(
        (0): MaxPool2d(kernel_size=2, stride=2, padding=0, dilation=1, ceil_mode=False)
        (1): Conv2d(20, 16, kernel_size=(3, 3), stride=(1, 1), padding=(1, 1))
        (2): ReLU()
        (3): Conv2d(16, 16, kernel_size=(3, 3), stride=(1, 1), padding=(1, 1))
        (4): ReLU()
        (5): Conv2d(16, 20, kernel_size=(3, 3), stride=(1, 1), padding=(1, 1))
        (6): ReLU()
      )
    )
    (3): _ConvBlock(
      (encode): Sequential(
        (0): MaxPool2d(kernel_size=2, stride=2, padding=0, dilation=1, ceil_mode=False)
        (1): Conv2d(20, 20, kernel_size=(3, 3), stride=(1, 1), padding=(1, 1))
        (2): ReLU()
        (3): Conv2d(20, 20, kernel_size=(3, 3), stride=(1, 1), padding=(1, 1))
        (4): ReLU()
      )
    )
  )
  (ConvBottom): _ConvBlock(
    (encode): Sequential(
      (0): MaxPool2d(kernel_size=2, stride=2, padding=0, dilation=1, ceil_mode=False)
      (1): Conv2d(20, 60, kernel_size=(3, 3), stride=(1, 1), padding=(1, 1))
      (2): ReLU()
      (3): Conv2d(60, 20, kernel_size=(3, 3), stride=(1, 1), padding=(1, 1))
      (4): ReLU()
      (5): Upsample(size=12, mode='nearest')
    )
  )
  (ConvsUp): ModuleList(
    (0): _ConvBlock(
      (encode): Sequential(
        (0): Conv2d(40, 20, kernel_size=(3, 3), stride=(1, 1), padding=(1, 1))
        (1): ReLU()
        (2): Conv2d(20, 20, kernel_size=(3, 3), stride=(1, 1), padding=(1, 1))
        (3): ReLU()
        (4): Upsample(size=25, mode='nearest')
      )
    )
    (1): _ConvBlock(
      (encode): Sequential(
        (0): Conv2d(40, 16, kernel_size=(3, 3), stride=(1, 1), padding=(1, 1))
        (1): ReLU()
        (2): Conv2d(16, 16, kernel_size=(3, 3), stride=(1, 1), padding=(1, 1))
        (3): ReLU()
        (4): Conv2d(16, 20, kernel_size=(3, 3), stride=(1, 1), padding=(1, 1))
        (5): ReLU()
        (6): Upsample(size=50, mode='nearest')
      )
    )
    (2): _ConvBlock(
      (encode): Sequential(
        (0): Conv2d(40, 20, kernel_size=(3, 3), stride=(1, 1), padding=(1, 1))
        (1): ReLU()
        (2): Conv2d(20, 20, kernel_size=(3, 3), stride=(1, 1), padding=(1, 1))
        (3): ReLU()
        (4): Upsample(size=101, mode='nearest')
      )
    )
    (3): _ConvBlock(
      (encode): Sequential(
        (0): Conv2d(40, 30, kernel_size=(3, 3), stride=(1, 1), padding=(1, 1))
        (1): ReLU()
        (2): Conv2d(30, 1, kernel_size=(3, 3), stride=(1, 1), padding=(1, 1))
      )
    )
  )
)
Trainable parameters: 93773
Number of branches of the network: 5
Global properties of each scale: 
           |   RF_x   |   RF_y   |  Depth   | nparams  | k-size-x | k-size-y |
Branch 0   |         8|         8|         4|     16821|         3|         3|
Branch 1   |        16|        16|         4|     18080|         3|         3|
…
